backend: tensorflow
class_name: Sequential
config:
  layers:
  - class_name: InputLayer
    config:
      batch_input_shape: !!python/tuple
      - null
      - 20
      - 72
      dtype: float32
      name: lstm_input
      ragged: false
      sparse: false
  - class_name: LSTM
    config:
      activation: tanh
      activity_regularizer: null
      batch_input_shape: !!python/tuple
      - null
      - 20
      - 72
      bias_constraint: null
      bias_initializer:
        class_name: Zeros
        config: {}
      bias_regularizer: null
      dropout: 0.0
      dtype: float32
      go_backwards: false
      implementation: 2
      kernel_constraint: null
      kernel_initializer:
        class_name: GlorotUniform
        config:
          seed: null
      kernel_regularizer: null
      name: lstm
      recurrent_activation: sigmoid
      recurrent_constraint: null
      recurrent_dropout: 0.0
      recurrent_initializer:
        class_name: Orthogonal
        config:
          gain: 1.0
          seed: null
      recurrent_regularizer: null
      return_sequences: true
      return_state: false
      stateful: false
      time_major: false
      trainable: true
      unit_forget_bias: true
      units: 64
      unroll: false
      use_bias: true
  - class_name: LSTM
    config:
      activation: tanh
      activity_regularizer: null
      bias_constraint: null
      bias_initializer:
        class_name: Zeros
        config: {}
      bias_regularizer: null
      dropout: 0.0
      dtype: float32
      go_backwards: false
      implementation: 2
      kernel_constraint: null
      kernel_initializer:
        class_name: GlorotUniform
        config:
          seed: null
      kernel_regularizer: null
      name: lstm_1
      recurrent_activation: sigmoid
      recurrent_constraint: null
      recurrent_dropout: 0.0
      recurrent_initializer:
        class_name: Orthogonal
        config:
          gain: 1.0
          seed: null
      recurrent_regularizer: null
      return_sequences: false
      return_state: false
      stateful: false
      time_major: false
      trainable: true
      unit_forget_bias: true
      units: 64
      unroll: false
      use_bias: true
  - class_name: Dense
    config:
      activation: linear
      activity_regularizer: null
      bias_constraint: null
      bias_initializer:
        class_name: Zeros
        config: {}
      bias_regularizer: null
      dtype: float32
      kernel_constraint: null
      kernel_initializer:
        class_name: GlorotUniform
        config:
          seed: null
      kernel_regularizer: null
      name: dense
      trainable: true
      units: 72
      use_bias: true
  - class_name: Activation
    config:
      activation: softmax
      dtype: float32
      name: activation
      trainable: true
  name: sequential
keras_version: 2.4.0
backend: tensorflow
class_name: Sequential
config:
  layers:
  - class_name: InputLayer
    config:
      batch_input_shape: !!python/tuple
      - null
      - 20
      - 72
      dtype: float32
      name: lstm_input
      ragged: false
      sparse: false
  - class_name: LSTM
    config:
      activation: tanh
      activity_regularizer: null
      batch_input_shape: !!python/tuple
      - null
      - 20
      - 72
      bias_constraint: null
      bias_initializer:
        class_name: Zeros
        config: {}
      bias_regularizer: null
      dropout: 0.0
      dtype: float32
      go_backwards: false
      implementation: 2
      kernel_constraint: null
      kernel_initializer:
        class_name: GlorotUniform
        config:
          seed: null
      kernel_regularizer: null
      name: lstm
      recurrent_activation: sigmoid
      recurrent_constraint: null
      recurrent_dropout: 0.0
      recurrent_initializer:
        class_name: Orthogonal
        config:
          gain: 1.0
          seed: null
      recurrent_regularizer: null
      return_sequences: true
      return_state: false
      stateful: false
      time_major: false
      trainable: true
      unit_forget_bias: true
      units: 64
      unroll: false
      use_bias: true
  - class_name: LSTM
    config:
      activation: tanh
      activity_regularizer: null
      bias_constraint: null
      bias_initializer:
        class_name: Zeros
        config: {}
      bias_regularizer: null
      dropout: 0.0
      dtype: float32
      go_backwards: false
      implementation: 2
      kernel_constraint: null
      kernel_initializer:
        class_name: GlorotUniform
        config:
          seed: null
      kernel_regularizer: null
      name: lstm_1
      recurrent_activation: sigmoid
      recurrent_constraint: null
      recurrent_dropout: 0.0
      recurrent_initializer:
        class_name: Orthogonal
        config:
          gain: 1.0
          seed: null
      recurrent_regularizer: null
      return_sequences: false
      return_state: false
      stateful: false
      time_major: false
      trainable: true
      unit_forget_bias: true
      units: 64
      unroll: false
      use_bias: true
  - class_name: Dense
    config:
      activation: linear
      activity_regularizer: null
      bias_constraint: null
      bias_initializer:
        class_name: Zeros
        config: {}
      bias_regularizer: null
      dtype: float32
      kernel_constraint: null
      kernel_initializer:
        class_name: GlorotUniform
        config:
          seed: null
      kernel_regularizer: null
      name: dense
      trainable: true
      units: 72
      use_bias: true
  - class_name: Activation
    config:
      activation: softmax
      dtype: float32
      name: activation
      trainable: true
  name: sequential
keras_version: 2.4.0
